{"modelTopology":{"class_name":"Sequential","config":{"name":"sequential_1","layers":[{"class_name":"Embedding","config":{"input_dim":3908,"output_dim":64,"embeddings_initializer":{"class_name":"RandomUniform","config":{"minval":-0.05,"maxval":0.05,"seed":null}},"embeddings_regularizer":null,"activity_regularizer":null,"embeddings_constraint":null,"mask_zero":null,"input_length":null,"name":"embedding_Embedding1","trainable":true,"batch_input_shape":[null,null]}},{"class_name":"LSTM","config":{"name":"lstm_LSTM1","trainable":true,"units":128,"activation":"tanh","recurrent_activation":"hard_sigmoid","use_bias":true,"kernel_initializer":{"class_name":"VarianceScaling","config":{"scale":1,"mode":"fan_avg","distribution":"normal","seed":null}},"recurrent_initializer":{"class_name":"Orthogonal","config":{"gain":1,"seed":null}},"bias_initializer":{"class_name":"Zeros","config":{}},"unit_forget_bias":null,"kernel_regularizer":null,"recurrent_regularizer":null,"bias_regularizer":null,"activity_regularizer":null,"kernel_constraint":null,"recurrent_constraint":null,"bias_constraint":null,"dropout":0,"recurrent_dropout":0,"implementation":null,"return_sequences":false,"return_state":false,"go_backwards":false,"stateful":false,"unroll":false}},{"class_name":"Dense","config":{"units":3908,"activation":"softmax","use_bias":true,"kernel_initializer":{"class_name":"VarianceScaling","config":{"scale":1,"mode":"fan_avg","distribution":"normal","seed":null}},"bias_initializer":{"class_name":"Zeros","config":{}},"kernel_regularizer":null,"bias_regularizer":null,"activity_regularizer":null,"kernel_constraint":null,"bias_constraint":null,"name":"dense_Dense1","trainable":true}}]},"keras_version":"tfjs-layers 4.11.0","backend":"tensor_flow.js"},"weightsManifest":[{"paths":["weights.bin"],"weights":[{"name":"embedding_Embedding1/embeddings","shape":[3908,64],"dtype":"float32"},{"name":"lstm_LSTM1/kernel","shape":[64,512],"dtype":"float32"},{"name":"lstm_LSTM1/recurrent_kernel","shape":[128,512],"dtype":"float32"},{"name":"lstm_LSTM1/bias","shape":[512],"dtype":"float32"},{"name":"dense_Dense1/kernel","shape":[128,3908],"dtype":"float32"},{"name":"dense_Dense1/bias","shape":[3908],"dtype":"float32"}]}],"format":"layers-model","generatedBy":"TensorFlow.js tfjs-layers v4.11.0","convertedBy":null}